CADRL/CrowdNav/crowd_nav/data/output/il_model.pth (torch, 112335 bytes, 7 tensors)

value_network.0.weight f4 [150, 13]
0.08893919 0.2376988 0.02960226 0.22094904 0.075984895 -0.10391923 0.051526126 0.2594144
0.18053006 0.1289688 -0.2315873 -0.16446736 -0.2197998 -0.0049696146 0.17231537 0.01910019
0.106708296 -0.113786 0.054084376 0.2150275 0.10610957 0.25492442 -0.18592346 -0.00079242093
-0.24570149 -0.2622722 0.25651044 -0.23928049 -0.21824035 -0.25315234 -0.017788379 -0.17851098
0.11225328 0.02021591 0.046140905 -0.24506153 -0.10218729 0.17924692 -0.002613865 0.11052452
0.023234578 -0.22424203 0.16204022 0.2095197 -0.24498628 -0.16741745 0.030388655 -0.054671947
-0.108406045 0.12997308 -0.26524577 0.17769024 0.19489986 -0.13794872 -0.06620222 -0.046241365
0.04484044 0.19597696 -0.091514796 0.11475785 0.21442752 -0.008114184 0.045921497 -0.22910897
-0.091118634 -0.23182611 0.2102873 -0.23186867 0.0614011 0.22729446 0.12359637 -0.010514
-0.21991728 0.029465625 0.16199209 0.05088806 0.24192461 0.010349964 -0.2772605 0.21939243
0.17447019 0.1351463 0.0014114573 -0.020838507 -0.1371114 -0.058431983 0.13741358 0.042389415
-0.20844528 -0.010317391 -0.03722877 -0.11324434 0.13337696 -0.2294274 0.032450825 -0.0074530244
0.023092628 -0.08745995 -0.19087365 -0.15251513 0.1092526 -0.1937679 -0.21823044 -0.1854116
0.2418996 0.19038671 -0.25894704 -0.19683726 -0.112276204 -0.06680153 0.20442085 0.049727157
-0.044521607 -0.06412265 -0.22659816 0.018368548 0.25232142 -0.023901045 -0.2745542 -0.11562194
0.05737707 0.26289317 -0.092340544 0.14706004 0.044448406 0.16739184 -0.08205268 -0.014570832
-0.12299979 0.09023002 0.061351698 -0.13659137 -0.24680217 -0.1018147 0.20744148 0.27370745
0.04547071 -0.24514267 -0.27507445 0.2250103 0.10370122 -0.2589383 0.03276884 -0.20880146
-0.13072571 0.13557273 0.1820168 -0.13205162 -0.050922915 -0.2027467 0.017260749 0.07523826
-0.13090575 -0.16825928 0.09180703 -0.16884787 -0.24949576 0.09406763 -0.049333632 0.17560744
0.2571033 -0.25293458 -0.17747636 -0.16946514 0.07011822 0.16433683 0.1452379 -0.18066444
0.12818323 -0.21325886 0.15955235 -0.1088762 -0.07684673 -0.26716703 0.15606622 -0.00978582
-0.27066436 0.1253451 0.028122501 0.16647007 0.17265597 0.1476436 0.21697643 -0.18264197
-0.13782653 -0.08710892 0.24320433 -0.19236785 -0.0920323 0.17514588 -0.20894848 0.0070291767
0.121332414 0.26469314 -0.10103064 -0.08361316 0.046040297 -0.16686742 -0.0072630383 0.15624784
-0.25689268 0.13782111 -0.023898175 -0.25398603 0.16143863 -0.04759032 0.04571451 0.18734853
0.15311328 0.23474869 0.04183972 -0.17574967 0.1072058 0.026376978 -0.14759485 0.044199552
0.1928569 0.15091407 -0.25181127 -0.20704849 0.24288407 -0.12486431 0.10167741 0.081228614
0.12095447 0.03151388 0.13354914 0.05634795 -0.246186 0.041108374 -0.2487823 0.17143738
-0.09539755 0.08352159 0.23820569 -0.1594356 -0.12815505 0.20895092 -0.06516001 0.16889778
0.22302458 -0.21200787 0.0074718967 -0.12717886 0.04129233 0.19137824 0.017766466 -0.1338321
0.18347348 -0.22871135 -0.21640097 -0.11120843 0.098694205 -0.20417607 -0.008436713 -0.08879395
00000000: c025 b63d 5067 733e 7080 f23c 7740 623e
00000010: f89d 9b3d 9bd3 d4bd 0f0d 533d f7d1 843e
00000020: dfdc 383e 6610 043e 3925 6dbe 226a 28be
00000030: 3313 61be 26d8 a2bb 7173 303e 0078 9c3c
00000040: e189 da3d a208 e9bd 9487 5d3d 2b30 5c3e
00000050: f94f d93d 7485 823e b862 3ebe 78ba 4fba
00000060: 2c99 7bbe 8b48 86be 5655 833e f205 75be
00000070: 667a 5fbe 2f9d 81be efb8 91bc 95cb 36be
00000080: 0ce5 e53d d69b a53c 3ffe 3c3d 69f1 7abe
00000090: 9247 d1bd 818c 373e 614d 2bbb ae5a e23d
000000a0: 7156 be3c b49f 65be dfed 253e 558c 563e
000000b0: afdd 7abe 7b6f 2bbe a1f1 f83c b1ef 5fbd
000000c0: fd03 debd aa17 053e 4bce 87be 6ef4 353e
000000d0: d493 473e 6e42 0dbe 0895 87bd 9667 3dbd
000000e0: 9caa 373d 2fae 483e 1c6c bbbd 2a06 eb3d
000000f0: e392 5b3e 5bf1 04bc 2e18 3c3d 8b9b 6abe
00000100: 689c babd d363 6dbe 8e55 573e fb6e 6dbe
00000110: b87f 7b3d e1bf 683e 1820 fd3d ea42 2cbc
00000120: ff31 61be e561 f13c 41e1 253e 0070 503d
00000130: 16bb 773e e592 293c 17f5 8dbe 69a8 603e
00000140: 50a8 323e cb63 0a3e a600 b93a 84b5 aabc
00000150: ee66 0cbe 6056 6fbd 25b6 0c3e 86a0 2d3d
00000160: ae72 55be 460a 29bc 327d 18bd a6ec e7bd
00000170: f893 083e 04ef 6abe 28eb 043d 8038 f4bb
00000180: c02c bd3c 341e b3bd 6274 43be ed2c 1cbe
00000190: d4bf df3d 186b 46be cd77 5fbe 8adc 3dbe
000001a0: 87b4 773e bcf4 423e b594 84be b58f 49be
000001b0: 11f1 e5bd 3ecf 88bd b353 513e b4ae 4b3d
000001c0: 4a5c 36bd bc52 83bd 5909 68be a379 963c
000001d0: 4630 813e 20cc c3bc 5e92 8cbe 32cb ecbd
000001e0: 3804 6b3d ef99 863e 0a1d bdbd e896 163e
000001f0: 880f 363d c468 2b3e 3c0b a8bd 80ba 6ebc
00000200: 50e7 fbbd 84ca b83d eb4b 7b3d 9cde 0bbe
00000210: b5b9 7cbe 3a84 d0bd 8a6b 543e 6223 8c3e
00000220: 7f3f 3a3d ae06 7bbe 8fd6 8cbe 1a69 663e
00000230: 4e61 d43d 9093 84be 9f38 063d 0dd0 55be
00000240: f6dc 05be 94d3 0a3e 9d62 3a3e 8a38 07be
00000250: 8c94 50bd d59c 4fbe 6a66 8d3c 8416 9a3d
00000260: 280c 06be 294c 2cbe 5305 bc3d 75e6 2cbe
00000270: d17b 7fbe 88a6 c03d 1012 4abd 70d2 333e
00000280: 0ba3 833e a480 81be 5dbc 35be 4588 2dbe
00000290: 249a 8f3d ea47 283e 3eb9 143e 1900 39be
000002a0: 7742 033e 8860 5abe b161 233e 7cfa debd
000002b0: d261 9dbd 1eca 88be d3cf 1f3e b454 20bc
000002c0: 8594 8abe 775a 003e 2961 e63c 2177 2a3e
000002d0: bacc 303e e22f 173e 122f 5e3e 7f06 3bbe
000002e0: 6622 0dbe 2966 b2bd 8e0a 793e 14fc 44be
000002f0: 6e7b bcbd 7159 333e 97f6 55be 0255 e63b
00000300: 217d f83d dc85 873e 27e9 cebd 603d abbd
00000310: c094 3c3d 4bdf 2abe c8fe edbb 6fff 1f3e
00000320: 7087 83be fa20 0d3e 1bc6 c3bc 750a 82be
00000330: 2b50 253e 11ee 42bd 233f 3b3d 4bd8 3f3e
00000340: bac9 1c3e f661 703e 2060 2b3d b9f7 33be
00000350: b78e db3d 8814 d83c 1b23 17be 970a 353d
00000360: 477c 453e 3889 1a3e 68ed 80be 8504 54be
00000370: 9ab6 783e dcb8 ffbd 3f3c d03d 305b a63d
00000380: fab6 f73d b314 013d 1bc1 083e 1ccd 663d
00000390: 2f18 7cbe 4161 283d cac0 7ebe 488d 2f3e
000003a0: ca5f c3bd 5e0d ab3d 31ec 733e 1643 23be
000003b0: 143b 03be 3bf7 553e 9c72 85bd 8af3 2c3e
000003c0: 8e60 643e 9718 59be d0d6 f43b 2d3b 02be
000003d0: 2522 293d a8f8 433e fb8a 913c 480b 09be
000003e0: 79e0 3b3e 4f33 6abe 3798 5dbe 3fc1 e3bd
000003f0: 3020 ca3d 8813 51be 243a 0abc 9ad9 b5bd

value_network.0.bias f4 [150]
-0.07017276 0.1691115 -0.15486929 -0.15040645 0.07579268 -0.2583624 0.14846466 -0.05752921
-0.088350646 -0.25378433 -0.24516323 0.23412135 0.20508131 0.062613904 -0.14161563 -0.007907833
0.0025234267 -0.15094955 -0.18132354 -0.20124522 -0.2546214 -0.0021766666 0.07655646 0.18911155
-0.12662639 0.18119124 0.1538163 0.14145239 0.2090974 0.06253419 -0.102211624 -0.047625985
0.03821927 -0.16086686 -0.12699865 0.22255822 -0.21265306 -0.08693717 0.21517985 0.243996
-0.26594654 0.035205193 0.14242241 -0.085805364 -0.09408127 -0.2669455 0.0010652692 -0.12692407
0.25134724 -0.08978366 -0.08023291 0.10112099 -0.2008178 0.02626112 0.09060754 -0.009651087
-0.15976822 0.17843404 0.26210514 -0.28128448 0.15879354 0.15184726 -0.24265058 -0.2677786
0.26064086 0.12860379 -0.1186928 -0.053568438 -0.12736733 0.21377327 0.083030045 0.00031892804
0.24368598 0.2785858 -0.22755419 0.045679297 -0.12055644 0.12843621 -0.066028416 -0.1040895
-0.040456302 -0.2211272 -0.12210802 0.04649345 -0.024839014 0.035593566 0.10068251 -0.23089851
-0.17146555 0.10956124 0.19600344 0.09503088 0.13665923 -0.0444431 -0.16912611 0.15797263
0.060548674 0.05735756 -0.0911313 0.15187208 -0.22019705 0.22911078 -0.019341558 -0.2001606
0.10256855 -0.045617428 0.07260038 0.124467716 0.15383033 0.25207317 -0.17917371 0.24353392
0.05946347 -0.118442066 -0.10763489 0.08502832 0.18978901 0.030372579 -0.24861224 0.25695226
-0.21276833 -0.12263436 -0.021988975 0.028228266 0.026567247 0.11405249 0.045998946 -0.22444819
0.093083546 0.020936722 -0.18730554 0.14768717 0.16246264 -0.2049314 -0.19482005 0.10472617
-0.2522805 0.21966477 0.017868534 -0.1488306 -0.15244174 -0.13648522 0.23225579 0.10783191
-0.17825 0.14616552 -0.21051832 -0.028182236 0.12881319 -0.04222457
00000000: bcb6 8fbd 912b 2d3e 0e96 1ebe 2604 1abe
00000010: 3139 9b3d 1448 84be 1f07 183e c0a3 6bbd
00000020: 2ff1 b4bd 05f0 81be 120c 7bbe 82bd 6f3e
00000030: d600 523e b83b 803d b003 11be db8f 01bc
00000040: 1360 253b 8592 1abe e1ac 39be 3a13 4ebe
00000050: bc5d 82be 68a6 0ebb a2c9 9c3d 75a6 413e
00000060: 59aa 01be 328a 393e 0582 1d3e e5d8 103e
00000070: a11d 563e ed11 803d 5454 d1bd 7713 43bd
00000080: cf8b 1c3d 48ba 24be ef0b 02be 4de6 633e
00000090: b9c1 59be 1d0c b2bd 1b58 5c3e 16da 793e
000000a0: 252a 88be 5233 103d 2ed7 113e b9ba afbd
000000b0: aead c0bd 15ad 88be 81a0 8b3a 62f8 01be
000000c0: 96b0 803e 7fe0 b7bd 2751 a4bd 8618 cf3d
000000d0: 2ea3 4dbe 8f21 d73c 7290 b93d 981f 1ebc
000000e0: 489a 23be 6ab7 363e a532 863e 8504 90be
000000f0: c69a 223e d97d 1b3e 6579 78be 471a 89be
00000100: b872 853e b6b0 033e 3615 f3bd 946a 5bbd
00000110: 956c 02be 61e7 5a3e a80b aa3d cc35 a739
00000120: d188 793e cca2 8e3e f703 69be 371a 3b3d
00000130: 4be6 f6bd c884 033e e839 87bd e02c d5bd
00000140: 82b5 25bd 2b6f 62be c513 fabd ea6f 3e3d
00000150: 307b cbbc 8fca 113d a232 ce3d a970 6cbe
00000160: aa94 2fbe a561 e03d 20b5 483e 8d9f c23d
00000170: 66f0 0b3e f809 36bd 652f 2dbe 94c3 213e
00000180: e301 783d c3ef 6a3d 0ca3 babd 5b84 1b3e
00000190: 567b 61be 049c 6a3e 3072 9ebc e6f6 4cbe
000001a0: 760f d23d 57d9 3abd 82af 943d eee8 fe3d
000001b0: b385 1d3e bc0f 813e 5079 37be f560 793e
000001c0: f88f 733d c191 f2bd ae6f dcbd 5423 ae3d
000001d0: 0d58 423e eacf f83c 3594 7ebe 3f8f 833e
000001e0: f1df 59be b927 fbbd 3922 b4bc f73e e73c
000001f0: 8ea3 d93c 5a94 e93d 6469 3c3d bfd5 65be
00000200: 96a2 be3d 7d83 ab3c 06cd 3fbe 4e3b 173e
00000210: 9b5c 263e 89d9 51be e87e 47be ad7a d63d
00000220: e92a 81be cdef 603e 0861 923c 0c67 18be
00000230: b019 1cbe c8c2 0bbe 76d4 6d3e fad6 dc3d
00000240: 2b87 36be 6aac 153e 1d92 57be 6fde e6bc
00000250: 9be7 033e acf3 2cbd

value_network.2.weight f4 [100, 150]
0.06754951 -0.0078357635 -0.06455517 -0.068211585 -0.021604834 0.051686816 0.015935032 -0.07219201
-0.014466432 -0.076086074 -0.043848988 0.048525315 -0.071339495 0.06487863 0.057678495 0.029106235
0.07132602 0.071416974 -0.038678207 -0.08063449 0.034607988 -0.011171255 -0.023773193 0.03880578
0.03488384 0.06707303 0.08807552 -0.020501576 -0.011064937 -0.026981227 -0.016498093 0.03593845
-0.044030048 0.07829931 0.05136618 0.015926622 -0.06968211 -0.08197785 0.016519973 -0.049749732
-0.053147756 0.027795726 -0.049513485 0.0098178 -0.07553932 -0.015491687 0.03694372 0.028124653
0.08958409 0.044311833 -0.01906851 0.046082683 -0.03113515 -0.035236496 -0.048181128 0.075290106
-0.05660885 0.06270677 0.084527634 -0.021395663 -0.013662237 -0.021347072 -0.014799975 0.07135389
0.040844753 0.025406325 0.036030617 -0.04218225 -0.0630334 -0.06598561 0.047633544 -0.053533807
-0.07345054 0.048542514 0.051736183 -0.060521666 -0.038726125 0.05650381 -0.013789907 0.030684195
0.00971021 -0.025730433 0.03878682 -0.0092961965 0.011234023 0.07232241 -0.06488767 -0.046335585
-0.038015198 0.0536903 -0.014873427 0.0529588 -0.035798557 0.038022555 0.013609538 -0.04774627
0.037882786 0.00812057 -0.018815413 -0.050126705 0.044195566 0.020452794 -0.047252167 0.069990575
0.071844384 0.016242621 0.02184388 -0.036544316 -0.05184674 0.029939394 0.026438568 -0.062122192
0.07983278 -0.013885857 -0.012844548 0.037149742 -0.006872382 -0.055472407 0.03693572 -0.008848162
-0.019973814 0.05657287 -0.03694077 -0.03229657 -0.06459693 -0.016840154 -0.0736996 -0.00076492736
0.054891508 -0.04599409 -0.05246423 -0.026766408 -0.0065139313 0.0015980782 -0.08347603 0.024916735
-0.066791445 -0.026078966 -0.03988361 0.027554967 -0.07449983 -0.041498087 0.030448271 0.027823094
0.06603259 -0.0010236701 -0.00941102 -0.0028829193 0.08154614 -0.062222317 0.04427277 -0.083396114
-0.015875427 0.05558032 -0.07925589 0.07759193 -0.023119895 0.07794085 -0.031755242 0.012800343
0.031219348 -0.031121233 0.010110654 0.053353716 -0.0010613604 0.0789985 0.028211396 -0.07526554
-0.009697171 0.0016070633 -0.07718267 -0.076237254 -0.026884379 -0.08961437 -0.07040706 -0.080696955
-0.059098262 -0.072351106 -0.026349053 -0.028403671 0.050024316 -0.017063173 0.07605247 0.06741502
0.04688184 -0.015672216 -0.039600916 0.008205956 -0.020099204 -0.002741091 -0.036888734 -0.059638824
0.064339705 -0.033044178 0.032973193 -0.0026171545 -0.0593848 0.0583027 0.024246123 0.010801485
0.07323729 -0.07980156 0.024534311 0.03743486 -0.07257156 -0.048475634 0.06597678 0.077098235
-0.04762121 -0.06526035 0.019922405 0.030935025 -0.07224186 0.06949961 -0.036060873 -0.070215136
-0.055272073 -0.00882753 0.03679551 -0.0860177 -0.054231867 -0.026291577 0.06583518 0.03169851
0.06465627 0.009416828 -0.06084346 0.06929139 0.017183885 0.076031744 0.028032107 0.06387293
-0.068734646 -0.04414506 0.04979667 0.048452064 -0.027597712 -0.06200917 -0.045004528 -0.047888227
-0.046759926 0.048014093 -0.011499317 0.05915698 -0.030090703 -0.006949846 0.026631119 0.06907113
0.01727936 0.06617519 0.0047051334 0.008794241 0.04134363 0.0004981421 0.029006792 0.018686384
00000000: 6657 8a3d 9361 00bc 8035 84bd 84b2 8bbd
00000010: 9ffc b0bc 8eb5 533d 2f8a 823c 68d9 93bd
00000020: 9d04 6dbc 04d3 9bbd ff9a 33bd 7bc2 463d
00000030: 711a 92bd 16df 843d 4940 6c3d 3370 ee3c
00000040: 6013 923d 1043 923d 0a6d 1ebd b223 a5bd
00000050: 1bc1 0d3d a407 37bc 00c0 c2bc cff2 1e3d
00000060: 5be2 0e3d 965d 893d f060 b43d ecf2 a7bc
00000070: b649 35bc bc07 ddbc 0227 87bc 3234 133d
00000080: da58 34bd 635b a03d 5865 523d 8c78 823c
00000090: 7eb5 8ebd 01e4 a7bd e554 873c 60c6 4bbd
000000a0: 76b1 59bd ddb3 e33c a7ce 4abd d6da 203c
000000b0: 5cb4 9abd d8d0 7dbc 4c52 173d ac65 e63c
000000c0: dd77 b73d 5380 353d 9035 9cbc 32c1 3c3d
000000d0: 240f ffbc 2554 10bd 9359 45bd b331 9a3d
000000e0: aede 67bd 686c 803d d31c ad3d f545 afbc
000000f0: 93d7 5fbc 0ee0 aebc 987b 72bc fd21 923d
00000100: d44c 273d ed20 d03c d794 133d 4cc7 2cbd
00000110: a817 81bd 7723 87bd 641b 433d 4446 5bbd
00000120: 3d6d 96bd 84d4 463d 52e9 533d 91e5 77bd
00000130: 499f 1ebd 8a70 673d 10ef 61bc 6c5d fb3c
00000140: 9317 1f3c a1c8 d2bc eede 1e3d 134f 18bc
00000150: e80e 383c c61d 943d d4e3 84bd 62ca 3dbd
00000160: d3b5 1bbd 5cea 5b3d adaf 73bc 54eb 583d
00000170: 82a1 12bd 8abd 1b3d 8afa 5e3c 9891 43bd
00000180: fb2a 1b3d 240c 053c c822 9abc a951 4dbd
00000190: 6906 353d 9e8c a73c 7d8b 41bd 3857 8f3d
000001a0: 2623 933d 3f0f 853c f0f1 b23c 7eaf 15bd
000001b0: 3f5d 54bd 7643 f53c b295 d83c d773 7ebd
000001c0: 5e7f a33d 8181 63bc f071 52bc 542a 183d
000001d0: b831 e1bb 0937 63bd e949 173d e2f7 10bc
000001e0: 20a0 a3bc f4b8 673d 344f 17bd 6849 04bd
000001f0: 654b 84bd 5df4 89bc d1ef 96bd 6885 48ba
00000200: ebd5 603d 4d64 3cbd bce4 56bd 3a45 dbbc
00000210: d172 d5bb 9b76 d13a 7bf5 aabd 2e1e cc3c
00000220: f4c9 88bd 8ea3 d5bc ff5c 23bd f4ba e13c
00000230: 5e93 98bd e6f9 29bd a76e f93c 42ed e33c
00000240: 183c 873d ab2c 86ba ae30 1abc 5cef 3cbb
00000250: aa01 a73d d4dc 7ebd 5d57 353d 95cb aabd
00000260: 2f0d 82bc 31a8 633d e950 a2bd 85e8 9e3d
00000270: ef65 bdbc 749f 9f3d c911 02bd 88b8 513c
00000280: b8bf ff3c f5f1 febc 28a7 253c 6d89 5a3d
00000290: 581d 8bba f7c9 a13d 961b e73c d224 9abd
000002a0: e2e0 1ebc 19a4 d23a f311 9ebd 4722 9cbd
000002b0: a13c dcbc bd87 b7bd 9431 90bd 7244 a5bd
000002c0: 0511 72bd d12c 94bd f8d9 d7bc d1ae e8bc
000002d0: 4ce6 4c3d 11c8 8bbc 66c1 9b3d e310 8a3d
000002e0: 2c07 403d 0563 80bc 9234 22bd 4672 063c
000002f0: 16a7 a4bc e0a3 33bb a418 17bd d747 74bd
00000300: 89c4 833d 5559 07bd e60e 073d 9184 2bbb
00000310: 7a3d 73bd d0ce 6e3d ce9f c63c b6f8 303c
00000320: 6ffd 953d 006f a3bd 2efc c83c 4c55 193d
00000330: 66a0 94bd 638e 46bd d61e 873d aee5 9d3d
00000340: 750e 43bd 38a7 85bd 5034 a33c 736b fd3c
00000350: 8af3 93bd d055 8e3d 91b4 13bd f4cc 8fbd
00000360: f864 62bd 58a1 10bc e4b6 163d 0c2a b0bd
00000370: 3c22 5ebd 6f61 d7bc 98d4 863d 4cd6 013d
00000380: 826a 843d 0a49 1a3c fe36 79bd a5e8 8d3d
00000390: 38c5 8c3c 88b6 9b3d 97a3 e53c d0cf 823d
000003a0: c0c4 8cbd 73d1 34bd 98f7 4b3d ac75 463d
000003b0: 9914 e2bc 54fd 7dbd ab56 38bd 7226 44bd
000003c0: 5687 3fbd 6daa 443d a267 3cbc 974e 723d
000003d0: c780 f6bc 89bb e3bb 8129 da3c 2a75 8d3d
000003e0: 728d 8d3c dc86 873d 852d 9a3b b815 103c
000003f0: f057 293d c095 023a a79f ed3c 3014 993c

value_network.2.bias f4 [100]
0.095409 0.05446638 -0.03592852 -0.029206244 -0.01646744 0.038032718 -0.07278082 -0.03184528
-0.045745775 -0.07521237 0.057334658 -0.027175289 0.04500171 -0.015194114 -0.005986292 -0.043971464
0.0020202103 0.020672712 0.042171456 0.043310262 -0.008598018 0.02227628 -0.07612161 0.01036502
0.05863494 0.018891562 -0.08350992 -0.0012708904 0.017945178 -0.05388622 0.017868908 0.02602657
-0.02423516 -0.009950994 0.008852752 0.0014878701 0.041577548 -0.0013558557 -0.061715294 -0.068882234
-0.034920152 -0.041699223 -0.0706121 0.106790416 -0.07678159 0.02921794 0.02726628 -0.08127973
0.050765757 0.038629185 -0.05550333 0.065671735 -0.054649454 -0.09018872 -0.001690961 0.009952075
-0.0056815823 -0.05179914 0.038730778 0.020389251 -0.03389904 0.013075943 -0.0340152 0.0072492864
-0.073098674 0.050929904 -0.024382945 -0.004724671 0.054684922 0.071212925 0.034798376 0.06695608
0.0072284876 0.015761467 -0.054207567 0.031670883 -0.0069221947 -0.035653293 -0.066092394 -0.060811777
-0.06184712 0.05356421 -0.05753957 0.06957419 0.03252235 0.056905393 0.012795492 -0.052671894
0.06190976 0.060170494 0.02325864 -0.051294625 0.0666935 0.05340026 0.021854952 0.055639744
-0.008276728 -0.0613397 0.040629376 0.0513168
00000000: cb65 c33d 2418 5f3d c929 13bd ef41 efbc
00000010: bae6 86bc 32c8 1b3d 1c0e 95bd 3270 02bd
00000020: ec5f 3bbd f108 9abd bfd7 6a3d b69e debc
00000030: b753 383d bcf0 78bc a828 c4bb 6c1b 34bd
00000040: 8165 043b d259 a93c fabb 2c3d 1a66 313d
00000050: b4de 0cbc bf7c b63c a6e5 9bbd 0bd2 293c
00000060: 312b 703d 7ac2 9a3c 4007 abbd 0194 a6ba
00000070: c401 933c ccb7 5cbd d161 923c ac35 d53c
00000080: d088 c6bc 7e09 23bc 220b 113c a304 c33a
00000090: 384d 2a3d f8b6 b1ba 2dc9 7cbd 2112 8dbd
000000a0: 6f08 0fbd cecc 2abd 149d 90bd efb4 da3d
000000b0: ab3f 9dbd 765a ef3c 895d df3c fd75 a6bd
000000c0: c1ef 4f3d a339 1e3d 7657 63bd e77e 863d
000000d0: 1bd8 5fbd ddb4 b8bd 3ca3 ddba 070e 233c
000000e0: 912c babb 562b 54bd 2aa4 1e3d 5c07 a73c
000000f0: b8d9 0abd 7b3c 563c 8653 0bbd 6c8b ed3b
00000100: c2b4 95bd e09b 503d bebe c7bc 6ad1 9abb
00000110: 4cfd 5f3d 15d8 913d be88 0e3d 4520 893d
00000120: f3dc ec3b 311e 813c c108 5ebd 54b9 013d
00000130: 94d3 e2bb 3009 12bd 735b 87bd c515 79bd
00000140: 6853 7dbd 2566 5b3d 9dae 6bbd ea7c 8e3d
00000150: 2836 053d a115 693d 2fa4 513c 7cbe 57bd
00000160: 1795 7d3d 5675 763d e788 be3c 501a 52bd
00000170: 9a96 883d 3bba 5a3d 2809 b33c 80e6 633d
00000180: 1d9b 07bc 563f 7bbd fd6a 263d 9131 523d

value_network.4.weight f4 [100, 100]
0.09306143 0.026674025 0.055705063 -0.027693508 -0.09187072 0.024186453 0.058077298 -0.014503976
-0.0916534 0.048190594 -0.055904657 -0.044133764 0.039000396 -0.08301387 0.04281642 -0.077443466
-0.01675301 0.087407544 0.0559706 -0.08433151 0.061264995 -0.011119805 -0.038376603 0.048157208
-0.068261005 0.062318612 -0.05956656 0.047991067 0.033480998 0.065691195 0.050098795 0.06300662
0.07986333 -0.02647785 0.10318094 0.005423065 0.011127175 0.024353027 -0.08236288 0.055693213
-0.077720426 -0.079519495 -0.059803277 -0.00575066 0.040239383 0.09308897 0.06079562 0.039888937
0.034997825 0.061550885 0.019517865 -0.0865943 0.0016842228 -0.08804151 -0.034272205 0.09289528
-0.0062362105 0.073668614 -0.011804696 0.009113374 -0.052105464 0.0019067622 0.022196073 -0.02940904
-0.06220851 0.04106965 0.014727325 -0.06488653 -0.03556234 0.095260486 -0.031486094 0.0018053905
0.015500917 -0.0019939442 0.00055763836 0.04244158 -0.07147243 -0.064411856 0.002482746 -0.089808404
0.08688594 0.0013625212 -0.060101334 0.09629587 -0.0833965 -0.005774635 0.015170304 -0.035252
-0.035784837 0.052002292 0.09876586 -0.06951938 0.064139776 0.0960717 -0.067193784 0.096459456
-0.06326797 -0.018018885 0.038068186 -0.01126235 -0.04306446 -0.096702866 -0.08892157 0.09573502
0.01391435 -0.059847504 0.0030320007 -0.023433603 0.10735623 0.05878549 0.04843679 -0.03913984
0.012152228 -0.09326311 0.054180097 -0.019332925 0.03696592 -0.010363679 -0.043780956 -0.06002429
0.088420846 0.01680978 0.07442899 -0.06861705 -0.011358596 0.035357073 -0.013550685 -0.08059917
-0.07685589 0.09182445 0.02886755 0.06577249 -0.080135345 0.048250962 0.01941649 -0.071008585
0.03360598 0.08270966 0.089499764 0.065035746 0.0027088458 0.02633419 0.06445183 0.026266478
-0.011694728 0.062606744 0.017034102 -0.10391424 -0.066362344 0.055330332 0.08578755 -0.073497064
-0.07778393 0.01882072 -0.061171833 -0.01909389 -0.0017710329 0.072012104 -0.08303526 -0.023719693
0.09588515 -0.023449626 -0.047663406 0.028488971 -0.05471282 0.05802367 -0.050632343 -0.082221545
-0.017017711 -0.042147014 0.07718817 0.097576395 0.037873328 -0.09585903 -0.052214637 -0.0256234
-0.04233973 -0.012039162 0.044146344 0.05993144 -0.00581149 -0.055118646 -0.07021876 -0.013247057
0.07689664 -0.008112804 0.02233833 0.07653872 0.069019884 0.06509825 0.089021794 0.06365586
-0.06925523 0.040419932 0.07646875 0.05063263 0.06752622 0.023367396 -0.008436258 0.026494201
-0.080229744 -0.005607512 -0.018666951 -0.035921298 0.076936655 -0.030601043 0.07142962 -0.09430393
0.016873073 -0.068532966 0.0534033 0.021615336 0.054597635 0.030829642 -0.058554966 0.031892747
-0.034770742 -0.008370826 -0.05622127 -0.060011975 0.04734191 0.011036053 0.05703123 0.017669534
0.06624258 -0.021789731 0.088879794 0.026537145 0.045381017 -0.03545526 -0.049519636 0.02511282
0.022047624 -0.025691956 -0.031677697 -0.07645908 0.045568887 -0.018864859 -0.08451308 0.07816147
-0.05502118 -0.07567003 0.050045993 0.043705534 -0.089873195 0.024849573 -0.07053694 0.0912568
0.017288243 0.047394443 -0.016667522 0.072655514 0.05492801 0.03244861 0.03597562 0.032778487
00000000: fe96 be3d 7c83 da3c fe2a 643d 7fdd e2bc
00000010: b726 bcbd ab22 c63c 76e2 6d3d 16a2 6dbc
00000020: c7b4 bbbd 8063 453d 48fc 64bd 9bc5 34bd
00000030: e1be 1f3d 2d03 aabd 4560 2f3d ae9a 9ebd
00000040: 9c3d 89bc ba02 b33d 6e41 653d 00b6 acbd
00000050: 01f1 7a3d d82f 36bc c930 1dbd 7e40 453d
00000060: 6dcc 8bbd cd41 7f3d 11fc 73bd 4892 443d
00000070: 5f23 093d 1b89 863d 6534 4d3d 9d09 813d
00000080: 638f a33d 13e8 d8bc 8750 d33d f7b3 b13b
00000090: c14e 363c 0080 c73c dfad a8bd 911e 643d
000000a0: e32b 9fbd 1edb a2bd 48f4 74bd 0870 bcbb
000000b0: 0dd2 243d 6ea5 be3d d404 793d 9562 233d
000000c0: e159 0f3d c81c 7c3d eee3 9f3c 5a58 b1bd
000000d0: 24c1 dc3a 1b4f b4bd 0361 0cbd e13f be3d
000000e0: 2059 ccbb 92df 963d 7c68 41bc 4350 153c
000000f0: 8a6c 55bd 53ec f93a 8ad4 b53c 3aeb f0bc
00000100: 5ace 7ebd a638 283d e14a 713c 3be3 84bd
00000110: d1a9 11bd ee17 c33d 90f7 00bd daa2 ec3a
00000120: 8ff7 7d3c d5ac 02bb 7a2e 123a 39d7 2d3d
00000130: 2360 92bd 5dea 83bd 91b5 223b 78ed b7bd
00000140: 41f1 b13d a096 b23a d12c 76bd c536 c53d
00000150: c9cb aabd 2639 bdbb de8c 783c 6764 10bd
00000160: 1f93 12bd 5b00 553d c145 ca3d 2d60 8ebd
00000170: b75b 833d 3dc1 c43d e59c 89bd 898c c53d
00000180: a392 81bd 579c 93bc 63ed 1b3d b885 38bc
00000190: 5c64 30bd 270c c6bd 831c b6bd b910 c43d
000001a0: 04f9 633c a822 75bd 88b4 463b d4f7 bfbc
000001b0: 95dd db3d 0ec9 703d a865 463d 1951 20bd
000001c0: 231a 473c bb00 bfbd f3eb 5d3d 1560 9ebc
000001d0: 9469 173d 6ccc 29bc a953 33bd 08dc 75bd
000001e0: fd15 b53d aab4 893c 3a6e 983d 1987 8cbd
000001f0: 6819 3abc 94d2 103d b103 5ebc 2d11 a5bd
00000200: 9f66 9dbd 750e bc3d a47b ec3c bab3 863d
00000210: 001e a4bd cda2 453d 550f 9f3c f36c 91bd
00000220: 6da6 093d af63 a93d a74b b73d 7631 853d
00000230: e486 313b cdba d73c 52ff 833d cc2c d73c
00000240: 3f9b 3fbc f737 803d 1a8b 8b3c fdd0 d4bd
00000250: fbe8 87bd 0fa2 623d 62b1 af3d a185 96bd
00000260: 2e4d 9fbd e92d 9a3c 518f 7abd ca6a 9cbc
00000270: 0122 e8ba 157b 933d 640e aabd cd4f c2bc
00000280: 6f5f c43d 6e19 c0bc b43a 43bd b461 e93c
00000290: 8d1a 60bd 3aaa 6d3d dc63 4fbd c563 a8bd
000002a0: ba68 8bbc 59a2 2cbd d514 9e3d 22d6 c73d
000002b0: 1021 1b3d bd51 c4bd 04df 55bd 2ae8 d1bc
000002c0: 6d6c 2dbd e83f 45bc ccd2 343d ab7a 753d
000002d0: 506e bebb 17c4 61bd dace 8fbd 2f0a 59bc
000002e0: fc7b 9d3d 91eb 04bc e0fe b63c 55c0 9c3d
000002f0: 4c5a 8d3d 3b52 853d 0f51 b63d 015e 823d
00000300: b0d5 8dbd 5f8f 253d a69b 9c3d 2964 4f3d
00000310: 304b 8a3d fb6c bf3c 3b38 0abc 5e0a d93c
00000320: 7e4f a4bd 38bf b7bb 6feb 98bc 3622 13bd
00000330: f790 9d3d 0aaf fabc b149 923d 6b22 c1bd
00000340: 6639 8a3c 035b 8cbd 6bbd 5a3d a512 b13c
00000350: c5a1 5f3d 728e fc3c 55d7 6fbd f8a1 023d
00000360: c46b 0ebd ca25 09bc 4648 66bd 1ecf 75bd
00000370: 97e9 413d 90d0 343c 9499 693d b3bf 903c
00000380: 31aa 873d 6180 b2bc 9c06 b63d 6d64 d93c
00000390: 72e1 393d 8939 11bd 1ad5 4abd 67b9 cd3c
000003a0: 389d b43c f077 d2bc 79c0 01bd 9496 9cbd
000003b0: 71a6 3a3d 7a8a 9abc 3215 adbd 1f13 a03d
000003c0: e45d 61bd e4f8 9abd 07fd 4c3d 9304 333d
000003d0: 700f b8bd 5591 cb3c ac75 90bd d8e4 ba3d
000003e0: 13a0 8d3c ad20 423d 548a 88bc 6acc 943d
000003f0: 31fc 603d d5e8 043d 2c5b 133d bc42 063d

value_network.4.bias f4 [100]
-0.007409135 -0.051260866 -0.029658731 0.002358998 -0.0069204024 0.01363892 -0.04041025 0.052735806
0.05340012 -0.059679482 0.03424354 0.15181464 0.062257417 0.13000903 -0.050488405 0.13441208
-0.08856077 -0.003980553 0.09017501 -0.07270884 0.022025764 -0.051459238 -0.06348787 0.00084162265
-0.05093839 0.028672999 -0.07136112 -0.072779186 0.0021929846 -0.035865534 0.01278448 0.067580566
-0.049873907 -0.027024332 -0.08945466 0.019101553 0.05225781 0.03684384 -0.05910457 0.15588462
0.0041480637 -0.021923043 0.018260362 -0.03134495 0.14538504 0.11408393 -0.03802727 -0.1087408
0.015761526 0.041316926 0.08059512 0.039925758 -0.061838638 0.05719747 0.04242341 -0.058935925
0.068765715 -0.0061563267 -0.022938482 0.021791715 0.04622618 0.008391409 0.121226236 0.13277884
-0.014448626 -0.09643687 -0.03829462 0.063290365 -0.07006643 0.042856853 -0.045915026 0.07111865
0.026788501 -0.0030027074 0.1610373 -0.07008032 -0.09000335 -0.06420976 -0.029213602 -0.06795264
0.046279326 0.053345695 0.0044353916 0.08866517 0.015437388 -0.02581648 -0.09256723 0.06890293
-0.071052834 0.0061104624 0.1279362 0.042336036 0.05712895 -0.085558735 -0.086224005 0.049423315
0.028902443 -0.018558169 -0.07307759 -0.041270286
00000000: 54c8 f2bb eaf6 51bd def6 f2bc 6b99 1a3b
00000010: 8bc4 e2bb c775 5f3c 3885 25bd 8001 583d
00000020: 16ba 5a3d 7972 74bd f442 0c3d 4c75 1b3e
00000030: a201 7f3d 1621 053e eecc 4ebd 52a3 093e
00000040: 595f b5bd 4c6f 82bb adad b83d 5fe8 94bd
00000050: 606f b43c ecc6 52bd ee05 82bd 57a0 5c3a
00000060: c6a4 50bd a3e3 ea3c c725 92bd 410d 95bd
00000070: 2db8 0f3b bde7 12bd ff75 513c ae67 8a3d
00000080: 9548 4cbd 2262 ddbc 0134 b7bd dc7a 9c3c
00000090: 490c 563d 91e9 163d a217 72bd 38a0 1f3e
000000a0: 7bec 873b f497 b3bc c196 953c 9063 00bd
000000b0: d1df 143e d6a4 e93d 7cc2 1bbd 7fb3 debd
000000c0: 511e 813c f03b 293d 0e0f a53d 3189 233d
000000d0: 834a 7dbd e547 6a3d 2bc4 2d3d cc66 71bd
000000e0: 0ad5 8c3d 03bb c9bb 7ce9 bbbc 8a84 b23c
000000f0: aa57 3d3d 1f7c 093c 7645 f83d 2df7 073e
00000100: eeb9 6cbc b280 c5bd d2da 1cbd 619e 813d
00000110: fd7e 8fbd ab8a 2f3d 6511 3cbd a8a6 913d
00000120: 8f73 db3c 12c9 44bb f6e6 243e 4586 8fbd
00000130: ad53 b8bd 6880 83bd 5d51 efbc c12a 8bbd
00000140: 648f 3d3d 0481 5a3d c356 913b 1696 b53d
00000150: 19ed 7c3c 157d d3bc e393 bdbd fb1c 8d3d
00000160: 2684 91bd 463a c83b b501 033e 8d68 2d3d
00000170: 0c00 6a3d 6b39 afbd 3696 b0bd 1a70 4a3d
00000180: d1c4 ec3c 4d07 98bc b4a9 95bd 080b 29bd

value_network.6.weight f4 [1, 100]
0.11006497 0.1208779 0.077587456 0.051950242 -0.14785258 -0.25878596 -0.10912798 0.10667425
-0.016803889 -0.027163597 -0.061777793 0.21457823 -0.10843205 0.25340253 -0.0050041564 0.1639644
-0.09858755 0.013090192 0.07857174 0.0012896194 -0.019273115 0.06320548 0.04560802 -0.033542693
0.09623941 -0.07231546 -0.030097349 0.073727 0.10284377 0.034137297 -0.10858073 0.08395344
0.0017593838 -0.28744328 -0.16168797 0.01011895 -0.09388808 0.1373456 -0.17253946 0.14578688
-0.078231774 -0.08093004 -0.15530059 -0.09310254 0.21741103 0.048332933 0.046703555 -0.01299059
0.037230875 -0.009540193 0.18840526 0.12724015 -0.069347054 0.060513526 0.12748763 -0.043436337
0.0047679036 0.13131146 0.09345166 0.16063638 0.0033229436 0.007194015 0.43234769 0.24904871
-0.18080106 -0.02879166 0.07688783 -0.13293679 -0.04846984 0.076840624 -0.039047327 0.050106205
-0.046475247 0.008800657 0.14733328 0.00087007775 0.07380383 0.035124063 -0.020299729 0.053980514
-0.15114866 0.23464875 0.06132966 0.060546838 0.086625956 -0.07046585 0.042126656 0.0505247
0.017387344 0.11857929 0.07843328 -0.02981674 0.06629348 -0.040621553 0.023216628 0.057138763
0.0028502028 -0.07090953 -0.03959099 -0.059441563
00000000: be69 e13d d58e f73d 2ce6 9e3d c7c9 543d
00000010: ab66 17be 987f 84be 7e7e dfbd 0778 da3d
00000020: 4fa8 89bc 3186 debc b60a 7dbd 65ba 5b3e
00000030: 9f11 debd fabd 813e e8f9 a3bb 49e6 273e
00000040: 45e8 c9bd 3f78 563c 38ea a03d 7208 a93a
00000050: a7e2 9dbc e071 813d 7acf 3a3d 1064 09bd
00000060: 2b19 c53d 211a 94bd b78e f6bc 2efe 963d
00000070: c19f d23d 8dd3 0b3d 935f debd c8ef ab3d
00000080: 209b e63a c42b 93be 8891 25be f4c9 253c
00000090: 6548 c0bd 53a4 0c3e 2fae 30be 2849 153e
000000a0: fb37 a0bd a6be a5bd 1e07 1fbe 8bac bebd
000000b0: ffa0 5e3e c1f8 453d 3a4c 3f3d 7cd6 54bc
000000c0: 677f 183d 784e 1cbc 4fed 403e 3e4b 023e
000000d0: d405 8ebd 08dd 773d 1e8c 023e 4dea 31bd
000000e0: 133c 9c3b 8376 063e 9563 bf3d dd7d 243e
000000f0: bec5 593b c6bb eb3b ad5c dd3e a006 7f3e
00000100: ea23 39be 7ddc ebbc 5e77 9d3d 9520 08be
00000110: 5088 46bd 9e5e 9d3d 17f0 1fbd 2a3c 4d3d
00000120: d45c 3ebd a130 103c 89de 163e ee15 643a
00000130: 7626 973d 40de 0f3d 9e4b a6bc ac1a 5d3d
00000140: b7c6 1abe c347 703e cf34 7b3d f6ff 773d
00000150: f368 b13d 6650 90bd 008d 2c3d fdf2 4e3d
00000160: e76f 8e3c b3d9 f23d a1a1 a03d 3c42 f4bc
00000170: e0c4 873d c962 26bd cc30 be3c 560a 6a3d
00000180: 78ca 3a3b 0439 91bd 292a 22bd ff78 73bd
