CADRL/CrowdNav/crowd_nav/data/output/rl_model.pth (torch, 112335 bytes, 7 tensors)

value_network.0.weight f4 [150, 13]
0	0x3d9b3258	0.07577962
1	0x3e6b1344	0.22956568
2	0x3cf28070	0.02960226
3	0x3e5fc0e2	0.21850923
4	0x3d8442c3	0.06458046
5	0xbdab8c63	-0.08376386
6	0x3d550927	0.05201068
7	0x3e82a890	0.25519228
8	0x3e472c87	0.1945058
9	0x3e16a35c	0.14710754
10	0xbe6fa4ce	-0.23402712
11	0xbe2b9d9f	-0.16759346
12	0xbe661451	-0.22468688
13	0x3c7f5fde	0.015586821
14	0x3e353367	0.1769539
15	0x3c9c7800	0.01910019
16	0x3ddd6510	0.10810292
17	0xbdd99715	-0.1062452
18	0x3d886a3a	0.06660886
19	0x3e6127a5	0.2198778
20	0x3dcef596	0.101054356
21	0x3e816ea1	0.25279716
22	0xbe35bb03	-0.1774712
23	0x3a1d2dac	0.00059958803
24	0xbe846e0e	-0.25865215
25	0xbe84dca7	-0.25949594
26	0x3e863d96	0.2621886
27	0xbe7cec92	-0.2469962
28	0xbe5f7a66	-0.21824035
29	0xbe82caa9	-0.25545242
30	0xbcc9d862	-0.024639312
31	0xbe32365d	-0.1740355
32	0x3df7713f	0.12082147
33	0x3c9cc90d	0.019138837
34	0x3d6955c5	0.05696656
35	0xbe79767b	-0.24361603
36	0xbdd605e0	-0.10450339
37	0x3e263823	0.16232352
38	0xbbed47fe	-0.007241248
39	0x3ddf128c	0.108922094
40	0x3cd4aebd	0.025962228
41	0xbe659fb4	-0.22424203
42	0x3e26c289	0.16285147
43	0x3e50e6f2	0.20400599
44	0xbe770fb1	-0.2412708
45	0xbe15535f	-0.14582585
46	0x3d080b96	0.033214174
47	0xbd863807	-0.06553655
48	0xbddb1086	-0.10696511
49	0x3e05ec53	0.13078432
50	0xbe8ef073	-0.27917823
51	0x3e37a0f0	0.17932487
52	0x3e331921	0.17490055
53	0xbe1449d6	-0.14481291
54	0xbd879508	-0.06620222
55	0xbd45d719	-0.048300836
56	0x3d491cff	0.04909992
57	0x3e3d05ed	0.18459292
58	0xbda4d7f8	-0.08049005
59	0x3dcf268a	0.101147726
60	0x3e587dae	0.21141693
61	0xbba64b4d	-0.0050748945
62	0x3d33a8ab	0.043862026
63	0xbe80a79b	-0.25127873
64	0xbdc30bec	-0.09523758
65	0xbe66a04b	-0.22522084
66	0x3e5fd616	0.21859011
67	0xbe6d6efb	-0.23186867
68	0x3d82da36	0.06389277
69	0x3e699f24	0.22814614
70	0x3e011a4c	0.12607688
71	0xbcf7b7c5	-0.030238995
72	0xbe66f7c0	-0.22555447
73	0x3cfff845	0.031246314
74	0x3e224420	0.158463
75	0x3d5aa2e0	0.053377986
76	0x3e759c02	0.23985294
77	0x3c7b198d	0.015325916
78	0xbe8a0f68	-0.2696488
79	0x3e681a8e	0.2266638
80	0x3e32a850	0.17447019
81	0x3e0c9dbb	0.13732044
82	0x3c5f2b9f	0.01362124
83	0xbc9828c6	-0.01857413
84	0xbe056c9e	-0.13029715
85	0xbd919ffe	-0.07110594
86	0x3e0af755	0.13570912
87	0x3d14934b	0.036273282
88	0xbe5338be	-0.20627114
89	0x3b8f0144	0.0043641645
90	0xbd069ffa	-0.03286741
91	0xbde7eca6	-0.11324434
92	0x3e0893f8	0.13337696
93	0xbe6aef04	-0.2294274
94	0x3d04eb28	0.032450825
95	0xbbf43880	-0.0074530244
96	0x3cbd2cc0	0.023092628
97	0xbdb31e34	-0.08745995
98	0xbe437462	-0.19087365
99	0xbe1c2ced	-0.15251513
100	0x3ddfbfd4	0.1092526
101	0xbe466b18	-0.1937679
102	0xbe5f77cd	-0.21823044
103	0xbe3ddc8a	-0.1854116
104	0x3e7a0af8	0.24418247
105	0x3e3bd274	0.18342
106	0xbe8494b5	-0.25894704
107	0xbe4bb201	-0.19892122
108	0xbdcae901	-0.09907723
109	0xbd73b677	-0.059500184
110	0x3e5a4a44	0.21317393
111	0x3d62d4d3	0.055378746
112	0xbd4fe650	-0.050756752
113	0xbd895f51	-0.06707633
114	0xbe6a2ba5	-0.22868212
115	0x3b879a3c	0.004138259
116	0x3e7e1b01	0.24814989
117	0xbcc3b35e	-0.02388924
118	0xbe8c9381	-0.27456287
119	0xbdeccb32	-0.11562194
120	0x3d6af60a	0.057363547
121	0x3e8699a3	0.2628909
122	0xbdbd11c8	-0.09231907
123	0x3e162401	0.14662172
124	0x3d3500b8	0.04419014
125	0x3e2b68c4	0.16739184
126	0xbda80b3c	-0.08205268
127	0xbc6f015f	-0.014587729
128	0xbdfcf245	-0.12350897
129	0x3db8bc56	0.09020297
130	0x3d0abbe5	0.033870596
131	0xbe11c6aa	-0.1423594
132	0xbe7cb9b5	-0.24680217
133	0xbdd41008	-0.1035462
134	0x3e536cda	0.20646992
135	0x3e88dca0	0.26730824
136	0x3cfd88c7	0.03094901
137	0xbe827ac5	-0.2548429
138	0xbe8b4143	-0.27198228
139	0x3e639727	0.22225629
140	0x3dd0d580	0.10196972
141	0xbe83df37	-0.25756237
142	0x3cf00e24	0.029303618
143	0xbe382368	-0.17982256
144	0xbdeef168	-0.11667138
145	0x3e0ad394	0.13557273
146	0x3e3eb642	0.18624213
147	0xbdec05e3	-0.1152456
148	0xbd52d76a	-0.051474966
149	0xbe5070e7	-0.20355569
150	0x3d25f8f9	0.040520642
151	0x3d98140d	0.074256994
152	0xbe0bc2c8	-0.13648522
153	0xbe27f884	-0.16403395
154	0x3e05f925	0.13083322
155	0xbe244452	-0.16041687
156	0xbe78c4ba	-0.24293795
157	0x3dc4eafd	0.09615133
158	0xbd4a1210	-0.049333632
159	0x3e347775	0.17623694
160	0x3e8730f8	0.26404548
161	0xbe829a0e	-0.2550816
162	0xbe36bc32	-0.17845228
163	0xbe2e6857	-0.1703199
164	0x3d8fac0a	0.07015236
165	0x3e249bfb	0.16075127
166	0x3e155e43	0.14586739
167	0xbe2e625d	-0.1702971
168	0x3e0489d0	0.12943196
169	0xbe57f2cf	-0.21088718
170	0x3e27ab89	0.16374029
171	0xbddefa7c	-0.1088762
172	0xbd9ad078	-0.075592935
173	0xbe84c505	-0.25931564
174	0x3e19afc7	0.1500846
175	0xbbd6975a	-0.006548804
176	0xbe8d66b9	-0.27617434
177	0x3e044979	0.12918653
178	0x3cd2b732	0.02572212
179	0x3e2bc012	0.16772488
180	0x3e308598	0.17238462
181	0x3e19c13c	0.1501512
182	0x3e58b664	0.21163327
183	0xbe37dc7e	-0.17955205
184	0xbe0d2266	-0.13782653
185	0xbdb08102	-0.08618356
186	0x3e777627	0.24166165
187	0xbe34bd1b	-0.17650263
188	0xbdb85404	-0.090004
189	0x3e316b51	0.17326094
190	0xbe55bcd5	-0.20872815
191	0x387f42df	6.0859016e-05
192	0x3dfa6248	0.12225777
193	0x3e8d223f	0.2756519
194	0xbdcb1c64	-0.099175245
195	0xbd774f4f	-0.06037837
196	0x3d29801e	0.041381948
197	0xbe2adf4b	-0.16686742
198	0xbc0de626	-0.008660829
199	0x3e0ec122	0.13940862
200	0xbe84ffd8	-0.25976443
201	0x3e06b8cf	0.13156436
202	0xbc9fa8b8	-0.019489631
203	0xbe7ca170	-0.24670959
204	0x3e350a06	0.17679605
205	0xbd48a3b2	-0.048984237
206	0x3d294c1b	0.041332345
207	0x3e3cfa28	0.18454802
208	0x3e334c85	0.17509659
209	0x3e794212	0.2434161
210	0x3d2b6020	0.04183972
211	0xbe314d5b	-0.17314665
212	0x3dbd575d	0.09245179
213	0x3cea5a16	0.02860741
214	0xbdf645b7	-0.12025016
215	0x3d798329	0.0609161
216	0x3e318004	0.1733399
217	0x3e2512fe	0.16120526
218	0xbe7f3037	-0.24920736
219	0xbe54116a	-0.20709768
220	0x3e7e0a70	0.24808669
221	0xbdf53309	-0.11972625
222	0x3ddb5a02	0.10710527
223	0x3da65b30	0.081228614
224	0x3dfb0d27	0.12258368
225	0x3d21f09c	0.039536104
226	0x3e039f1c	0.12853664
227	0x3d61d083	0.055130493
228	0xbe7e284f	-0.24820064
229	0x3d11bbe2	0.03557957
230	0xbe7fc423	-0.24977164
231	0x3e3139a7	0.17307149
232	0xbdbdecb4	-0.09273663
233	0x3db1b8ca	0.08677824
234	0x3e7f6854	0.24942142
235	0xbe274191	-0.16333605
236	0xbe033b14	-0.12815505
237	0x3e54c44b	0.20778005
238	0xbd88aa45	-0.06673101
239	0x3e376cc9	0.17912592
240	0x3e6343b6	0.22193798
241	0xbe607924	-0.21921211
242	0x3c82f64a	0.01598658
243	0xbe06f9a4	-0.13181168
244	0x3d245691	0.04012162
245	0x3e346289	0.17615713
246	0x3c7cb3a9	0.015423694
247	0xbe0917f8	-0.1338805
248	0x3e3b4f2e	0.18291923
249	0xbe6a334f	-0.22871135
250	0xbe5da131	-0.21643521
251	0xbde70a10	-0.11281216
252	0x3dc9e1c8	0.098575175
253	0xbe4d954f	-0.20076488
254	0xbb7897f9	-0.003793238
255	0xbdb64845	-0.08900503

value_network.0.bias f4 [150]
0	0xbda0615c	-0.0783107
1	0x3e31eb86	0.17375001
2	0xbe267cae	-0.16258499
3	0xbe1738f5	-0.14767821
4	0x3d8d2c6d	0.06893239
5	0xbe800aec	-0.25008333
6	0x3e1f7944	0.15573603
7	0xbd6ba3c0	-0.05752921
8	0xbdc3352f	-0.09531628
9	0xbe81f128	-0.253793
10	0xbe8079d8	-0.2509296
11	0x3e7e1fcc	0.24816817
12	0x3e5423c2	0.20716766
13	0x3d88cd49	0.0667978
14	0xbe0dd9ae	-0.1385257
15	0xbc4de66e	-0.012567146
16	0x3c376c9a	0.011195326
17	0xbe150357	-0.14552055
18	0xbe3dab5a	-0.18522397
19	0xbe4ea485	-0.20179947
20	0xbe81d058	-0.25354266
21	0xbbb5b0f8	-0.005544778
22	0x3da39408	0.07987219
23	0x3e44d05d	0.1922011
24	0xbdf0ffc1	-0.11767531
25	0x3e398a32	0.18119124
26	0x3e1d994d	0.15390511
27	0x3e092950	0.13394666
28	0x3e527479	0.20552243
29	0x3d8a1bb1	0.06743563
30	0xbdb144e6	-0.086557195
31	0xbd3ad9e7	-0.045617964
32	0x3cf929e8	0.03041549
33	0xbe3234c0	-0.17402935
34	0xbdfdce30	-0.12392843
35	0x3e6059ab	0.21909206
36	0xbe55dd87	-0.20885287
37	0xbdb99c80	-0.09063053
38	0x3e59ee91	0.21282412
39	0x3e79da16	0.243996
40	0xbe873866	-0.26410216
41	0x3d0de6eb	0.03464405
42	0x3e126587	0.14296542
43	0xbdbc8d26	-0.092066094
44	0xbdaadb37	-0.08342593
45	0xbe89d3bb	-0.2691935
46	0x3b64571f	0.0034841967
47	0xbe01f00a	-0.12689224
48	0x3e82e0eb	0.25562224
49	0xbdbc91f3	-0.09207525
50	0xbdad5e4e	-0.08465253
51	0x3dd5d615	0.104412235
52	0xbe50fe2b	-0.20409457
53	0x3cf90c34	0.030401327
54	0x3db9db6f	0.09075057
55	0xbc226e49	-0.009913989
56	0xbe2267bb	-0.15859883
57	0x3e353802	0.17697147
58	0x3e8915a2	0.26774317
59	0xbe904c5a	-0.28183252
60	0x3e25e811	0.16201808
61	0x3e1c3d18	0.1525768
62	0xbe787965	-0.24265058
63	0xbe8a5dd8	-0.27024722
64	0x3e8b429e	0.27199262
65	0x3e08664d	0.13320275
66	0xbdf3d146	-0.1190515
67	0xbd5b9662	-0.053610213
68	0xbe0241ac	-0.12720364
69	0x3e5d008b	0.21582238
70	0x3daad5fa	0.08341594
71	0xbb8a4242	-0.0042193243
72	0x3e785f06	0.24254999
73	0x3e938568	0.28812718
74	0xbe63c543	-0.22243218
75	0x3d479182	0.04872275
76	0xbe0002d6	-0.12501082
77	0x3e0c7504	0.13716513
78	0xbd875da3	-0.06609657
79	0xbdd561f8	-0.10419077
80	0xbd1c43d2	-0.038150616
81	0xbe5f23f3	-0.21791057
82	0xbe0c8032	-0.13720778
83	0x3d55df6f	0.052215036
84	0xbccab3fa	-0.024744023
85	0x3d04a34e	0.032382302
86	0x3dd6ec2a	0.104942635
87	0xbe6cf6dc	-0.23141044
88	0xbe2f94aa	-0.17146555
89	0x3de56ed6	0.11202781
90	0x3e4679f5	0.1938246
91	0x3dacdbf4	0.0844039
92	0x3e0a5256	0.13507971
93	0xbd4ea127	-0.050446656
94	0xbe30811d	-0.17236753
95	0x3e282078	0.16418636
96	0x3d67013b	0.056397658
97	0x3d853c5f	0.065056555
98	0xbde57b7c	-0.112051934
99	0x3e0968f3	0.13418941
100	0xbe60fe32	-0.21971968
101	0x3e6a7532	0.22896269
102	0xbcaf7a1b	-0.02142053
103	0xbe3948de	-0.18094203
104	0x3dd7a964	0.105303556
105	0xbd223073	-0.039596986
106	0x3d8b2d28	0.06795722
107	0x3dfc1793	0.12309184
108	0x3e13a4e8	0.14418375
109	0x3e874c92	0.26425606
110	0xbe346765	-0.17617567
111	0x3e79a36b	0.24378745
112	0x3d65e9b4	0.05613108
113	0xbdded269	-0.10879976
114	0xbddf8fae	-0.109160766
115	0x3dbd84bd	0.092538334
116	0x3e400f53	0.18755846
117	0x3cacef0e	0.021110084
118	0xbe7dbbba	-0.24778643
119	0x3e84e6e6	0.25957412
120	0xbe5af872	-0.21383837
121	0xbe021727	-0.12704144
122	0xbca03ff9	-0.019561755
123	0x3cc0abad	0.023519361
124	0x3d1d6073	0.03842206
125	0x3de96407	0.11396032
126	0x3d38f74d	0.04515772
127	0xbe672c5b	-0.22575514
128	0x3dda3b2e	0.10655819
129	0x3c670b69	0.0141018415
130	0xbe3fd027	-0.18731748
131	0x3e1f6c66	0.15568694
132	0x3e22d341	0.159009
133	0xbe54a813	-0.2076724
134	0xbe47f27c	-0.19526094
135	0x3dcfaeb0	0.10140741
136	0xbe80a35a	-0.25124627
137	0x3e69e211	0.22840144
138	0x3cadf534	0.021235086
139	0xbe18c757	-0.14919792
140	0xbe1bb721	-0.15206577
141	0xbe154f97	-0.14581142
142	0x3e7163ea	0.2357327
143	0x3deb9ad8	0.115041435
144	0xbe369b5d	-0.17832704
145	0x3e1ba4cb	0.15199582
146	0xbe5ae000	-0.21374512
147	0xbcb85be9	-0.022504764
148	0x3e05b7a7	0.13058339
149	0xbd58e743	-0.052954923

value_network.2.weight f4 [100, 150]
0	0x3d7b29a7	0.06131902
1	0xbbd37ae7	-0.00645386
2	0xbd8ae78c	-0.06782445
3	0xbd84d9c5	-0.06486849
4	0xbcce98c3	-0.025219327
5	0x3d71f9c0	0.05907607
6	0x3cab00b2	0.020874355
7	0xbd93d968	-0.07219201
8	0xbc449a97	-0.011999748
9	0xbd9bd304	-0.076086074
10	0xbd41f0e8	-0.047348887
11	0x3d46aaf1	0.048502866
12	0xbd81b031	-0.06332434
13	0x3d8b8dd9	0.06814165
14	0x3d71e39b	0.059054952
15	0x3d068ba4	0.032848015
16	0x3d968db4	0.073512465
17	0x3d95ef5a	0.07321043
18	0xbd0c1c4a	-0.034206666
19	0xbda5856d	-0.080820896
20	0x3d24d63c	0.040243372
21	0xbc82441e	-0.015901621
22	0xbcc7fa1c	-0.024411254
23	0x3d1ca80a	0.038246192
24	0x3d064e3a	0.032789446
25	0x3d895d96	0.06707303
26	0x3db61cce	0.08892213
27	0xbca7504d	-0.020424033
28	0xbbd74f84	-0.0065707583
29	0xbcd84039	-0.026397811
30	0xbc433608	-0.0119147375
31	0x3d20ebc7	0.039287355
32	0xbd465ddd	-0.04842936
33	0x3dac683c	0.08418319
34	0x3d661c95	0.0561796
35	0x3c8f2307	0.017472757
36	0xbd85bb6e	-0.0652989
37	0xbda33733	-0.07969513
38	0x3c5b2414	0.013375301
39	0xbd4bc660	-0.049749732
40	0xbd599526	-0.053120755
41	0x3cf89382	0.030343775
42	0xbd47a9b4	-0.048745826
43	0x3c1566cb	0.009118746
44	0xbd97edd2	-0.074184075
45	0xbca3e673	-0.020007348
46	0x3d0a9262	0.033831008
47	0x3ce6ea87	0.028188003
48	0x3db73bed	0.08946977
49	0x3d35eacc	0.044413373
50	0xbcae211b	-0.02125602
51	0x3d346bbc	0.044048056
52	0xbd02c8b1	-0.031929675
53	0xbd040e08	-0.032239944
54	0xbd4526a6	-0.04813256
55	0x3da3abcc	0.07991752
56	0xbd665565	-0.056233782
57	0x3d8b7d5c	0.0681102
58	0x3dad8a7a	0.08473678
59	0xbca63dde	-0.020293172
60	0xbc4addef	-0.012382015
61	0xbc9c9985	-0.019116173
62	0xbc727b98	-0.014799975
63	0x3d910676	0.070813105
64	0x3d3061a5	0.04306187
65	0x3ce1708e	0.02751949
66	0x3d140624	0.03613867
67	0xbd2cc87d	-0.042183388
68	0xbd8170ab	-0.06320318
69	0xbd7fa5bf	-0.062413927
70	0x3d44a15e	0.048005454
71	0xbd5b6997	-0.053567495
72	0xbd963b19	-0.07335491
73	0x3d4a19c8	0.049340993
74	0x3d3291b5	0.04359599
75	0xbd75b136	-0.059983455
76	0xbced6a7d	-0.028981442
77	0x3d8117d8	0.06303376
78	0xbc5ceaea	-0.013483742
79	0x3cfcb8a9	0.030849772
80	0x3c725d24	0.014792714
81	0xbccfbe20	-0.025359213
82	0x3d192cd5	0.03739627
83	0xbbfc9ea0	-0.0077093393
84	0x3c35df3f	0.011100589
85	0x3d9561bd	0.07294033
86	0xbd82eb9a	-0.06392594
87	0xbd4418f1	-0.04787535
88	0xbd1bb5d3	-0.038015198
89	0x3d645207	0.05574229
90	0xbc51fcf9	-0.012816661
91	0x3d58159a	0.052754976
92	0xbd12d035	-0.035843093
93	0x3d1738ed	0.036919523
94	0x3ca686c8	0.02032794
95	0xbd20b749	-0.039237294
96	0x3d28ab88	0.04117921
97	0x3bf9b73d	0.0076207207
98	0xbbd5a7a9	-0.006520231
99	0xbd486685	-0.048925895
100	0x3d29ba68	0.041437536
101	0x3caaf01d	0.020866448
102	0xbd3777eb	-0.044792097
103	0x3d85d661	0.0653503
104	0x3d90ef38	0.07076877
105	0x3c8053a8	0.01566489
106	0x3ccd1179	0.025032746
107	0xbd126ca7	-0.03574815
108	0xbd4f8a52	-0.050669022
109	0x3cfb9568	0.03071089
110	0x3d0636fc	0.03276728
111	0xbd806e4d	-0.06271038
112	0x3daae685	0.08344749
113	0xbc1abdc5	-0.009444659
114	0xbc8ae33c	-0.016954057
115	0x3d3462e9	0.04403964
116	0xbc444511	-0.011979357
117	0xbd8001b7	-0.06250327
118	0x3d1cf894	0.038323
119	0xbc0c6a87	-0.00857032
120	0xbc979e33	-0.018508052
121	0x3d639ab7	0.05556747
122	0xbd03fd09	-0.032223735
123	0xbcfb59ce	-0.03068247
124	0xbd75da67	-0.060022738
125	0xbc5891be	-0.013218341
126	0xbd9584cc	-0.073007196
127	0xbb651d03	-0.003495992
128	0x3d64757e	0.05577611
129	0xbd3b6a71	-0.045755807
130	0xbd56e22f	-0.0524618
131	0xbcb59a81	-0.0221684
132	0xba53b3e1	-0.0008075815
133	0x3bf763f7	0.0075497585
134	0xbda9f0e9	-0.08297903
135	0x3cb716c7	0.022349728
136	0xbd7cc129	-0.06170765
137	0xbcc79245	-0.024361739
138	0xbd2b8ddc	-0.041883335
139	0x3ce1d6c4	0.027568229
140	0xbd98923d	-0.07449768
141	0xbd320712	-0.043463774
142	0x3ceb5af7	0.028729899
143	0x3ce5dc74	0.028059222
144	0x3d873c02	0.066032425
145	0xbb968c13	-0.004594335
146	0xbc3a3e90	-0.011367455
147	0xbb0e091c	-0.002167291
148	0x3da64f78	0.08120626
149	0xbd84752d	-0.06467662
150	0x3d34334d	0.043994237
151	0xbdaae449	-0.08344323
152	0xbc839b10	-0.01606515
153	0x3d635fe9	0.05551139
154	0xbda25104	-0.07925609
155	0x3d9ed289	0.07755
156	0xbcbd8fde	-0.02313989
157	0x3d9f9f74	0.07794085
158	0xbd03e183	-0.032197487
159	0x3c51b888	0.012800343
160	0x3cffbfb8	0.031219348
161	0xbcff99a5	-0.031201193
162	0x3c24091b	0.010011937
163	0x3d5a896d	0.053353716
164	0xbad8f14e	-0.0016551407
165	0x3da14640	0.07874727
166	0x3ce64192	0.028107438
167	0xbd9a24d2	-0.07526554
168	0xbc1f584d	-0.009725642
169	0x3ad2a419	0.0016070633
170	0xbd9e0536	-0.07715838
171	0xbd9c1737	-0.076216154
172	0xbcdc49f8	-0.02689074
173	0xbdb908b7	-0.09034865
174	0xbd903194	-0.07040706
175	0xbda54472	-0.080696955
176	0xbd75e424	-0.060032025
177	0xbd94cebb	-0.07265993
178	0xbcdd14f5	-0.026987532
179	0xbcebf593	-0.028803622
180	0x3d49f6e6	0.049307726
181	0xbc8bc811	-0.017063173
182	0x3d9bac28	0.076011956
183	0x3d89fd5c	0.067377776
184	0x3d3e5794	0.04647024
185	0xbc832a76	-0.016011458
186	0xbd23b730	-0.039969623
187	0x3c065509	0.008198985
188	0xbca52878	-0.020160899
189	0xbb33a3e0	-0.002741091
190	0xbd1718a4	-0.036888734
191	0xbd757065	-0.05992164
192	0x3d82c90c	0.06386003
193	0xbd075f5a	-0.03304992
194	0x3d05ec97	0.032696333
195	0xbb3c9067	-0.0028772594
196	0xbd733873	-0.059380006
197	0x3d6eced0	0.0583027
198	0x3cc3fb7c	0.023923628
199	0x3c301bcd	0.010748816
200	0x3d956ac5	0.07295755
201	0xbda36f00	-0.07980156
202	0x3cc8a2f0	0.024491757
203	0x3d19554c	0.03743486
204	0xbd94a066	-0.07257156
205	0xbd46b014	-0.048507765
206	0x3d871ed6	0.06597678
207	0x3d9de5ae	0.077098235
208	0xbd45693f	-0.048196074
209	0xbd85a738	-0.06526035
210	0x3ca30575	0.019900063
211	0x3cfc6bd5	0.030813137
212	0xbd93f38a	-0.07224186
213	0x3d8e55d0	0.06949961
214	0xbd16674f	-0.036719617
215	0xbd8fcccc	-0.07021484
216	0xbd6264f8	-0.055272073
217	0xbc10a158	-0.00882753
218	0x3d16b6e4	0.03679551
219	0xbdb0b477	-0.08628171
220	0xbd5e223c	-0.054231867
221	0xbcd8491c	-0.026402049
222	0x3d86d3fc	0.065834016
223	0x3cffc343	0.031221038
224	0x3d842cef	0.06453883
225	0x3c15bd32	0.009139346
226	0xbd7936fe	-0.06084346
227	0x3d8d8d83	0.06911757
228	0x3c8cc538	0.017183885
229	0x3d9bb688	0.076031744
230	0x3ce584b8	0.028017387
231	0x3d82c578	0.063853204
232	0xbd8ce3b6	-0.0687937
233	0xbd365445	-0.04451396
234	0x3d4bf798	0.04979667
235	0x3d467427	0.048450615
236	0xbce2b15c	-0.027672462
237	0xbd7dfd54	-0.06200917
238	0xbd3856ab	-0.045004528
239	0xbd44ad6f	-0.04801696
240	0xbd3f90a5	-0.046768803
241	0x3d44a698	0.04801044
242	0xbc3c67a2	-0.011499317
243	0x3d71c383	0.059024345
244	0xbcf6561b	-0.030070355
245	0xbbe5cf55	-0.0070132413
246	0x3cd351dc	0.02579587
247	0x3d8d25fc	0.068920106
248	0x3c8da916	0.01729254
249	0x3d86f897	0.065903835
250	0x3b9a2d85	0.0047051334
251	0x3c1015b8	0.008794241
252	0x3d2957f0	0.04134363
253	0x395d703f	0.00021118017
254	0x3ced9fa7	0.029006792
255	0x3c989338	0.018624887

value_network.2.bias f4 [100]
0	0x3dce568e	0.10075103
1	0x3d5b69fb	0.053567868
2	0xbd0da1c0	-0.034578085
3	0xbc775bec	-0.0150975995
4	0xbd0a1ae2	-0.033717044
5	0x3d221a1c	0.03957568
6	0xbd924042	-0.071411625
7	0xbc9b43fa	-0.018953312
8	0xbd59cd53	-0.053174328
9	0xbd94f2e2	-0.07272889
10	0x3d4a8a62	0.04944838
11	0xbd479be5	-0.048732657
12	0x3d316b9a	0.043315507
13	0xbc8c731b	-0.01714473
14	0xbc018568	-0.007905342
15	0xbd5cf2d7	-0.053942528
16	0x3b2ab92c	0.0026050312
17	0x3c88c695	0.016696254
18	0x3d5fa02e	0.05459612
19	0x3d2ebf0e	0.042662673
20	0xbbfc623f	-0.0077021415
21	0x3cda7afa	0.026669968
22	0xbd99c5d1	-0.075084336
23	0x3c438c45	0.011935298
24	0x3d6dfb32	0.058100887
25	0x3d1c4172	0.03814835
26	0xbd89c6e6	-0.0672739
27	0xbb8b5c9c	-0.0042529833
28	0x3c366c45	0.011134212
29	0xbd56fb2e	-0.052485637
30	0x3cce2931	0.025166126
31	0x3cc4a1af	0.024002878
32	0xbcc688d0	-0.02423516
33	0x3b90aa9c	0.0044148695
34	0x3c43bb5c	0.011946525
35	0x3b6d7c61	0.0036237466
36	0x3d40aa45	0.04703738
37	0x3cae4a19	0.021275567
38	0xbd70e905	-0.058815975
39	0xbd88c193	-0.06677546
40	0xbd182cfd	-0.03715228
41	0xbcf88c96	-0.030340474
42	0xbd8d946c	-0.06913075
43	0x3df99302	0.12186243
44	0xbda4b5e5	-0.08042506
45	0x3ce3fbdd	0.027830059
46	0x3d0d931a	0.034564115
47	0xbdb7ed42	-0.089808
48	0x3d25f67c	0.04051827
49	0x3d41fcfc	0.047360405
50	0xbd7bd666	-0.061483763
51	0x3d87ca03	0.066303276
52	0xbd52a5fc	-0.051427826
53	0xbdb7870f	-0.08961307
54	0x3bb7c832	0.005608582
55	0x3c1e37de	0.009656874
56	0xbc3285af	-0.01089613
57	0xbd614349	-0.05499581
58	0x3cc92cb6	0.024557453
59	0x3ceeb61e	0.029139575
60	0xbd0ad60d	-0.03389554
61	0x3c3f485c	0.011674967
62	0xbd10eb3c	-0.035380587
63	0x3b7c53ea	0.0038502165
64	0xbd98e677	-0.07465833
65	0x3d509be0	0.050929904
66	0xbcc653a6	-0.024209809
67	0xba0ffac9	-0.0005492387
68	0x3d62d283	0.05537654
69	0x3da9e441	0.08295489
70	0x3d08d514	0.033406332
71	0x3d884609	0.06653983
72	0x3c023107	0.007946259
73	0x3c92071d	0.017825658
74	0xbd4dffab	-0.050292652
75	0x3d0cdd7c	0.03439091
76	0xbba30f14	-0.0049761627
77	0xbd1287df	-0.035774108
78	0xbd7afdc3	-0.061277162
79	0xbd785e52	-0.060636826
80	0xbd7d5368	-0.06184712
81	0x3d7aba73	0.061212968
82	0xbd770103	-0.0603037
83	0x3d8c9c93	0.06865802
84	0x3d109866	0.03530159
85	0x3d53667b	0.051611405
86	0x3caa5ec5	0.020797143
87	0xbd571526	-0.052510403
88	0x3d90e50d	0.07074938
89	0x3d82411e	0.06360076
90	0x3c9a70e6	0.018852662
91	0xbd44a422	-0.04800809
92	0x3d674e60	0.05647123
93	0x3d2fe705	0.042944927
94	0x3cb30928	0.021854952
95	0x3d742c96	0.059612833
96	0xbbe11b20	-0.0068696886
97	0xbd5c6c84	-0.053814426
98	0x3d30b960	0.043145537
99	0x3d5a9d03	0.053372394

value_network.4.weight f4 [100, 100]
0	0x3dc68ba6	0.096946046
1	0x3cdc0afc	0.026860707
2	0x3d7dbbf4	0.061946824
3	0xbd0fa9df	-0.03507411
4	0xbdb9a820	-0.090652704
5	0x3cb3e12c	0.021957956
6	0x3d6e050c	0.05811028
7	0xbc8b70ab	-0.017021498
8	0xbdc75c2c	-0.09734377
9	0x3d43bba2	0.047786362
10	0xbd7b8f02	-0.06141568
11	0xbd114056	-0.035461746
12	0x3d1d6fa3	0.038436543
13	0xbda5c6f7	-0.0809459
14	0x3d482368	0.04886189
15	0xbd926fd6	-0.07150237
16	0xbc864ef8	-0.016395077
17	0x3db533b1	0.0884775
18	0x3d5fb48e	0.05461555
19	0xbda74a4d	-0.081684686
20	0x3d7921ed	0.06082337
21	0xbc38e539	-0.01128512
22	0xbcec9efc	-0.028884403
23	0x3d43e2ef	0.047823843
24	0xbd8bcc7a	-0.0682611
25	0x3d82e93d	0.06392143
26	0xbd5e232b	-0.054232758
27	0x3d422a6f	0.04740375
28	0x3d24f75f	0.040274974
29	0x3d85dbcb	0.06536063
30	0x3d1a0a2e	0.037607364
31	0x3d84e63a	0.06489225
32	0x3da38f63	0.07986333
33	0xbcc23f87	-0.023711933
34	0x3dca6c91	0.09883989
35	0x3b1e8fca	0.0024194592
36	0x3c1f5bdd	0.009726492
37	0x3c8d437d	0.017244095
38	0xbda6d3a7	-0.08145838
39	0x3d3f35cd	0.046682168
40	0xbda345f2	-0.079723254
41	0xbdb47ec4	-0.08813241
42	0xbd775167	-0.060380366
43	0xbc8493f5	-0.016183833
44	0x3d25c69c	0.04047261
45	0x3db348dd	0.08754132
46	0x3d6d21f1	0.057893697
47	0x3d333cec	0.04375927
48	0x3d13d52a	0.03609196
49	0x3d6d3f19	0.057921503
50	0x3c9fbb48	0.019498482
51	0xbdbf18fd	-0.09330938
52	0x3b88fc7b	0.0041804886
53	0xbdb7b0d6	-0.08969276
54	0xbcf9f767	-0.030513478
55	0x3dbe3fe1	0.09289528
56	0xbc286414	-0.010277767
57	0x3d8d80c6	0.06909327
58	0xbab72a25	-0.0013974352
59	0x3b371598	0.0027936455
60	0xbd556c8a	-0.052105464
61	0x3bd5212d	0.006504199
62	0x3c72ff54	0.014831383
63	0xbce8476b	-0.028354367
64	0xbd7f4fe0	-0.062332034
65	0x3d2838a6	0.04106965
66	0x3c6528b9	0.01398676
67	0xbd81d18e	-0.063387975
68	0xbd1f22f4	-0.038851693
69	0x3dbd31e7	0.09238034
70	0xbd0c7e55	-0.034300167
71	0x3aeb3a2e	0.0017946416
72	0x3c8f5b3f	0.017499564
73	0xbb0e3dc6	-0.00217043
74	0x3b116e68	0.0022191051
75	0x3d27b384	0.040942684
76	0xbd97793f	-0.07396173
77	0xbd83ea59	-0.06441183
78	0x3b01ff1a	0.001983589
79	0xbdb7b8f9	-0.089708276
80	0x3db1f141	0.08688594
81	0x3b48711a	0.0030584992
82	0xbd7acbbb	-0.06122945
83	0x3dd70414	0.10498825
84	0xbda28eda	-0.07937403
85	0x380d1e54	3.3645265e-05
86	0x3c89732f	0.016778557
87	0xbd119675	-0.035543878
88	0xbd0fd0b2	-0.035111137
89	0x3d54788c	0.051872775
90	0x3dcc2543	0.099680446
91	0xbd7df607	-0.062002208
92	0x3d8b674e	0.06806813
93	0x3dbf7a34	0.0934948
94	0xbd899ce5	-0.067193784
95	0x3dc4b60d	0.09605036
96	0xbd84610a	-0.06463821
97	0xbc8ac464	-0.01693935
98	0x3d1da5d6	0.03848823
99	0xbc271abd	-0.010199246
100	0xbd25bdb6	-0.040464126
101	0xbdc60c27	-0.096702866
102	0xbdbead55	-0.09310404
103	0x3dcba8a7	0.09944277
104	0x3c2afb4e	0.010435892
105	0xbd6b6e4a	-0.057478227
106	0x3b4962af	0.0030728986
107	0xbc900255	-0.017579237
108	0x3dd8cb9f	0.10585713
109	0x3d6efa5d	0.058344234
110	0x3d5ed8a7	0.054405835
111	0xbd40f0dd	-0.047104705
112	0x3c64132d	0.0139205875
113	0xbdbce28b	-0.09222897
114	0x3d64c2bf	0.055849787
115	0xbc73b76e	-0.014875276
116	0x3d0e10bb	0.034683924
117	0xbc1b0228	-0.009460963
118	0xbd3c2cbe	-0.045941107
119	0xbd79cc3a	-0.06098578
120	0x3db48865	0.08815078
121	0x3c53cfc9	0.012927958
122	0x3d9c4b1a	0.07631512
123	0xbd8d8880	-0.06910801
124	0xbc39fce5	-0.011351799
125	0x3d0dcd0f	0.034619387
126	0xbc80211b	-0.015640786
127	0xbda5696a	-0.08076747
128	0xbda4efcc	-0.0805355
129	0x3db491fe	0.08816908
130	0x3d08e450	0.03342086
131	0x3d8adc22	0.06780268
132	0xbda41e00	-0.080135345
133	0x3d6449ae	0.05573433
134	0x3c6a5fa3	0.014305028
135	0xbd93808c	-0.07202253
136	0x3cf73d40	0.030180573
137	0x3daa9d41	0.08330775
138	0x3db1b914	0.08677879
139	0x3d5d570d	0.054038096
140	0x3afa649d	0.0019103471
141	0x3cf3b30c	0.029748462
142	0x3d80dbe8	0.06291944
143	0x3d0776d2	0.0330723
144	0xbc91e7fd	-0.017810816
145	0x3d6dd32b	0.058062714
146	0x3c86ffae	0.01647934
147	0xbdd8070b	-0.10548218
148	0xbd877d60	-0.0661571
149	0x3d6ba8e5	0.057534117
150	0x3dae7678	0.0851869
151	0xbd83e09a	-0.06439324
152	0xbd9f100f	-0.07766735
153	0x3c9a33cd	0.018823529
154	0xbd7817ac	-0.06056945
155	0xbc9c6acb	-0.019093892
156	0xbb5862cb	-0.003301787
157	0x3d8acb94	0.06777111
158	0xbdafdb85	-0.08586792
159	0xbc7a59cc	-0.015280198
160	0x3dc45f6f	0.09588515
161	0xbcde79f1	-0.027157756
162	0xbd4b7684	-0.049673572
163	0x3cf09b42	0.029370908
164	0xbd60b015	-0.054855425
165	0x3d6daa3a	0.05802367
166	0xbd4b3715	-0.049613077
167	0xbd990aa4	-0.07472733
168	0xbc55acf6	-0.013041725
169	0xbd316088	-0.04330495
170	0x3d944ca3	0.0724118
171	0x3dc7d680	0.097577095
172	0x3cd8715f	0.026421247
173	0xbdc5be27	-0.09655409
174	0xbd61fa49	-0.05517033
175	0xbcd04c74	-0.02542708
176	0xbd343029	-0.04399124
177	0xbc44fecb	-0.012023638
178	0x3d32a576	0.043614827
179	0x3d762ef3	0.060103368
180	0xbbbe6e50	-0.00581149
181	0xbd4cb881	-0.049980644
182	0xbd914874	-0.070938975
183	0xbbd313b4	-0.006441558
184	0x3d97ca14	0.0741159
185	0xbbf888b5	-0.007584656
186	0x3cc0a71d	0.023517186
187	0x3d9c2504	0.07624248
188	0x3d859e2d	0.0652431
189	0x3d83af7c	0.06429955
190	0x3dbc7ec5	0.09203867
191	0x3d964350	0.073370576
192	0xbd9653dd	-0.073402144
193	0x3d26d97a	0.040734746
194	0x3d9c9ba6	0.07646875
195	0x3d4efd69	0.05053464
196	0x3d86f715	0.06590096
197	0x3cc6523d	0.024209136
198	0xbc1308f6	-0.008974304
199	0x3ce2dd33	0.027693367
200	0xbdad0107	-0.084474616
201	0xbbb7bf38	-0.005607512
202	0xbccbe55d	-0.024889642
203	0xbd132236	-0.035921298
204	0x3d9c4b50	0.07631552
205	0xbcfaaeed	-0.03060099
206	0x3d9249b1	0.07142962
207	0xbdc1506b	-0.09439167
208	0x3c9f2dcf	0.019431023
209	0xbd8c7963	-0.0685909
210	0x3d57affb	0.052658062
211	0x3cb8489b	0.022495558
212	0x3d5d2065	0.053985972
213	0x3cfc8e72	0.030829642
214	0xbd750a7e	-0.05982446
215	0x3cddbc5c	0.027067356
216	0xbd0f9a0b	-0.035059016
217	0xbc0bbe3f	-0.008529245
218	0xbd683684	-0.056692615
219	0xbd75cf1e	-0.060011975
220	0x3d413918	0.04717359
221	0x3c2992ce	0.010349942
222	0x3d595c29	0.053066406
223	0x3c908938	0.017643556
224	0x3d87aa31	0.06624258
225	0xbcb28061	-0.021789731
226	0x3db5e373	0.08881273
227	0x3cd65587	0.02616383
228	0x3d2f8224	0.04284872
229	0xbd1be3f1	-0.03805918
230	0xbd4a72f9	-0.049426053
231	0x3cd2a8b2	0.025715206
232	0x3cb49d38	0.022047624
233	0xbcd268e7	-0.025684787
234	0xbd20d656	-0.039266907
235	0xbd9f7379	-0.077856965
236	0x3d37a1fb	0.04483221
237	0xbc9acec2	-0.018897418
238	0xbdad5ad7	-0.08464592
239	0x3d9d3a35	0.07677118
240	0xbd6160dc	-0.055024013
241	0xbd9af3d6	-0.07566039
242	0x3d4cfd07	0.050045993
243	0x3d3200fc	0.04345797
244	0xbdbd4504	-0.09241679
245	0x3caac49c	0.020845704
246	0xbd907dcf	-0.07055246
247	0x3dbf5088	0.09341532
248	0x3c919b23	0.01777417
249	0x3d425ee9	0.047453795
250	0xbc888a10	-0.016667396
251	0x3d960856	0.07325809
252	0x3d4bcd34	0.049756244
253	0x3d0549a6	0.03254094
254	0x3d135b2c	0.03597562
255	0x3d0642bc	0.032778487

value_network.4.bias f4 [100]
0	0xba59e505	-0.00083120196
1	0xbd10cae6	-0.03534975
2	0xbcf5253a	-0.029924978
3	0x3a55b4f0	0.0008152267
4	0xbc1314bb	-0.0089771105
5	0x3c7c7ce6	0.0154106375
6	0xbd610aba	-0.05494187
7	0x3d4d97b7	0.050193515
8	0x3d476e31	0.04868907
9	0xbd747279	-0.059679482
10	0x3d0c42f4	0.03424354
11	0x3e3693ae	0.17829773
12	0x3d514d4f	0.051099118
13	0x3dc49040	0.09597826
14	0xbd4d2e16	-0.05009278
15	0x3e054de5	0.13017996
16	0xbdcb00f1	-0.09912289
17	0xbb826f4c	-0.003980553
18	0x3dbcd476	0.09220211
19	0xbd94d8b3	-0.072678946
20	0x3cb46f60	0.022025764
21	0xbd521d08	-0.051297218
22	0xbd767a3c	-0.060175166
23	0x3abc9c45	0.0014389834
24	0xbd2155ed	-0.039388586
25	0x3d3c8c1c	0.046032056
26	0xbd87f4fb	-0.06638523
27	0xbd68f9ea	-0.05687896
28	0x3c018586	0.00790537
29	0xbd010d20	-0.031506658
30	0x3aa99a64	0.0012939689
31	0x3d894959	0.06703443
32	0xbd4c6a8d	-0.049906302
33	0xbd111848	-0.035423547
34	0xbdd94c0a	-0.106102064
35	0x3ca5fb60	0.020261467
36	0x3d5163fe	0.05112075
37	0x3d3cbf91	0.04608113
38	0xbda28e47	-0.079372935
39	0x3e24be79	0.16088285
40	0x3c17a9db	0.009256805
41	0xbcb397f4	-0.021923043
42	0x3c37deb7	0.011222533
43	0xbcbc9996	-0.023022454
44	0x3e1a610c	0.15076083
45	0x3df13eda	0.11779566
46	0xbd3ee1f7	-0.046602216
47	0xbdd2b550	-0.10288489
48	0x3c6cc317	0.01445081
49	0x3d222e99	0.03959522
50	0x3dbc8747	0.092054896
51	0x3d30a788	0.04312852
52	0xbd85c41e	-0.06531547
53	0x3d600518	0.054692358
54	0x3d573f09	0.05255035
55	0xbd823927	-0.06358557
56	0x3d8d1f37	0.068907194
57	0xbca6884b	-0.020328661
58	0xbcb515bb	-0.022105088
59	0x3d1632fe	0.036669724
60	0x3d3eff84	0.046630397
61	0x3c1e9312	0.009678619
62	0x3dd6492a	0.10463174
63	0x3e135632	0.1438835
64	0xbbbd3807	-0.0057745012
65	0xbdc57631	-0.09641684
66	0xbd3b23dc	-0.045688495
67	0x3d941947	0.07231384
68	0xbd8f7efd	-0.07006643
69	0x3d4b4b4d	0.04963236
70	0xbd39caae	-0.045359306
71	0x3d90e5f9	0.07075114
72	0x3ca623f3	0.020280814
73	0xbb019c16	-0.0019776872
74	0x3e2b0a67	0.16703187
75	0xbd8e10c6	-0.06936793
76	0xbdac3a44	-0.08409551
77	0xbd83800e	-0.06420909
78	0xbd055cbb	-0.032559138
79	0xbd8994ba	-0.067178205
80	0x3d412940	0.04715848
81	0x3d767f61	0.06018007
82	0x3b9d30a0	0.0047970563
83	0x3dac726b	0.08420261
84	0xbadee2dc	-0.0017004865
85	0xbccffd98	-0.025389478
86	0xbdbd93e3	-0.09256723
87	0x3d9b62cc	0.075872034
88	0xbd9264bf	-0.07148122
89	0x3bf38602	0.0074317465
90	0x3e0f6fde	0.14007518
91	0x3d1e7af6	0.038691483
92	0x3d62c031	0.05535907
93	0xbdade840	-0.08491564
94	0xbdb59954	-0.08867136
95	0x3d6e653e	0.05820202
96	0x3cebf060	0.028801143
97	0xbce32c03	-0.027730947
98	0xbd95a9b4	-0.07307759
99	0xbd24e2f5	-0.040255506

value_network.6.weight f4 [1, 100]
0	0x3dd5e47c	0.104439706
1	0x3de0e470	0.10981071
2	0x3da05588	0.07828814
3	0x3d310c35	0.043224532
4	0xbe1a635d	-0.15076967
5	0xbe719227	-0.23590909
6	0xbdc54ba1	-0.09633566
7	0x3dd6be16	0.10485475
8	0xbc615621	-0.013753445
9	0xbcde8631	-0.027163597
10	0xbd7d0ab6	-0.061777793
11	0x3e4727fd	0.19448848
12	0xbdbe4bce	-0.09291802
13	0x3e40c8ba	0.18826571
14	0xbbba575c	-0.0056866836
15	0x3e1bae96	0.15203318
16	0xbdeb19af	-0.11479508
17	0x3c56783f	0.013090192
18	0x3dc18e60	0.09450984
19	0xbc139162	-0.00900683
20	0xbc9de2a7	-0.019273115
21	0x3d8171e0	0.06320548
22	0x3d6132a8	0.05497995
23	0xbcf8c4aa	-0.030367214
24	0x3dddb99a	0.10826416
25	0xbdb1b218	-0.08676547
26	0xbd1f3a95	-0.038874228
27	0x3da8669c	0.08222696
28	0x3ddcd0aa	0.10781987
29	0x3cc4d00d	0.024024988
30	0xbdeb1fa9	-0.11480648
31	0x3d77af81	0.060470108
32	0x3a8d9085	0.0010800516
33	0xbe9823f8	-0.29714942
34	0xbe25e05e	-0.1619887
35	0x3c272625	0.010201965
36	0xbe234ffe	-0.15948483
37	0x3e06888e	0.13138029
38	0xbe29cb87	-0.16581546
39	0x3e26905f	0.1626601
40	0xbdb80a65	-0.089863576
41	0xbda5bea6	-0.08093004
42	0xbe33da43	-0.17563729
43	0xbde0c00b	-0.10974129
44	0x3e5442f0	0.2072866
45	0x3d2ea832	0.042640872
46	0x3d45f801	0.048332218
47	0xbd2836e1	-0.04106796
48	0x3d684082	0.056702144
49	0xbc65c1f0	-0.014023289
50	0x3e3dbdbd	0.1852941
51	0x3e18ce50	0.14922452
52	0xbd9733d9	-0.07382936
53	0x3d6a53ec	0.05720894
54	0x3e06b56e	0.13155147
55	0xbd4417a0	-0.047874093
56	0xbca81931	-0.020519825
57	0x3de578d4	0.11204687
58	0x3dcadacb	0.09905013
59	0x3e18300d	0.1486208
60	0x3bbc9319	0.00575484
61	0x3bdb294f	0.006688274
62	0x3ed3dc8a	0.41379195
63	0x3e6ab1fe	0.22919461
64	0xbe604b81	-0.21903802
65	0xbcebddaf	-0.02879223
66	0x3d829f48	0.06378037
67	0xbe102892	-0.14077976
68	0xbd468850	-0.04846984
69	0x3d963672	0.07334603
70	0xbd0358f5	-0.032067258
71	0x3d15201f	0.036407586
72	0xbd375fff	-0.044769283
73	0x3bb1156c	0.005404165
74	0x3e23fd81	0.16014673
75	0xbbca3861	-0.0061712717
76	0x3dc70480	0.09717655
77	0x3ce5a7d4	0.028034128
78	0xbc7269cc	-0.014795732
79	0x3d500523	0.05078615
80	0xbe0ee691	-0.13955142
81	0x3e544e50	0.20732999
82	0x3d89c34d	0.06726704
83	0x3d7bbd8b	0.06146006
84	0x3db308a6	0.08741884
85	0xbd64fcb3	-0.055905055
86	0x3d2c8d00	0.042126656
87	0x3d467733	0.04845352
88	0x3c8c4aef	0.017125575
89	0x3dd70455	0.10498873
90	0x3d9820ae	0.07428108
91	0xbcded46b	-0.027200898
92	0x3d876bea	0.0661238
93	0xbdc3aaaf	-0.0955404
94	0x3c607dfd	0.013701913
95	0x3d80a257	0.06280964
96	0x3b298352	0.0025865627
97	0xbdbab1a3	-0.09115913
98	0xbd222a29	-0.03959099
99	0xbd74111a	-0.05958662
